generate_even_number/learned_model.pt (torch, 1319 bytes, 2 tensors)

fc.0.weight f4 [7, 7]
-0.18653731 -0.10109417 0.1895568 0.3241361 -0.12071178 0.18421952 0.08254434 -0.1668109
0.071876146 -0.23281965 0.19992724 -0.10159049 -0.07848345 0.24103464 -0.17504507 0.39348856
-0.021473002 -0.21931638 0.3863397 -0.111244425 -0.18920316 -0.06401363 0.0644231 -0.28530425
-0.027555093 0.18710935 -0.0720865 0.14159773 0.22424716 -0.14760849 0.26122183 0.016700922
-0.025340997 -0.081695765 0.33116615 0.037639458 -0.18801095 -0.24680862 -0.29157838 -0.09831901
0.09675285 -0.33757272 -2.5112884 -2.48478 -2.1558893 -2.2215705 -2.1965933 -2.2141066
-2.0490935
00000000: a303 3fbe 760a cfbd 2e1b 423e 2bf5 a53e
00000010: bd37 f7bd 0ba4 3c3e 020d a93d 7ad0 2abe
00000020: cd33 933d 4668 6ebe bab9 4c3e ad0e d0bd
00000030: eebb a0bd c9d1 763e 043f 33be 5577 c93e
00000040: 26e8 afbc 7994 60be 51ce c53e 1ed4 e3bd
00000050: 79be 41be 9419 83bd 42f0 833d 6613 92be
00000060: 38bb e1bc 9899 3f3e 16a2 93bd fffe 103e
00000070: 0ca1 653e ae26 17be debe 853e 5fd0 883c
00000080: ec97 cfbc 1c50 a7bd 9c8e a93e d52b 1a3d
00000090: f185 40be 66bb 7cbe c349 95be 7a5b c9bd
000000a0: 5c26 c63d 55d6 acbe f3b8 20c0 a306 1fc0
000000b0: 17fa 09c0 362e 0ec0 fc94 0cc0 ecb3 0dc0
000000c0: 5924 03c0

fc.0.bias f4 [7]
-0.0464449 -0.058646016 0.01462669 0.043137234 -0.28779793 0.31487417 -2.9452205
00000000: 023d 3ebd ce36 70bd c9a4 6f3c abb0 303d
00000010: 405a 93be 3037 a13e 7e7e 3cc0
